app/src/main/assets/color.tflite (tflite, 870128 bytes, 8 tensors)

sequential/dense_1/BiasAdd/ReadVariableOp f4 [9]
000000 83 cf 89 bd b7 fb 3e bd 86 2e 52 3c 4d 8b 99 bc
       -0.06729033 -0.046626773 0.012828475 -0.018743182
000010 27 48 47 3d 82 2c 52 3d aa cf ad bd 8e c4 b1 3d
       0.048652794 0.051311977 -0.084868744 0.08680068
000020 30 ea 3d bd
       -0.046365917

sequential/dense/BiasAdd/ReadVariableOp f4 [512]
000000 38 91 92 bd 53 02 91 bd d2 0f 0f bc 91 bb 05 bd
       -0.071566045 -0.070805214 -0.008731799 -0.03264958
000010 d5 05 98 3c e3 a9 1e 3d 48 66 37 bd 67 b4 b2 bb
       0.018557468 0.038736235 -0.044775277 -0.0054536345
000020 08 a2 81 3d 55 c3 60 3d 1c f8 87 3d da a5 4c bd
       0.06329733 0.054873783 0.0663912 -0.049962856
000030 ae 19 bf bc fc 3e a4 bc 57 49 85 3d f6 e3 0b bb
       -0.023327675 -0.020049565 0.06508129 -0.0021345592
000040 c2 e3 98 bd 8f 50 06 bc f8 0a b2 3d 06 8b b9 bc
       -0.07465316 -0.008197918 0.086934984 -0.0226493
000050 8a 62 8e 3c 8e bb 00 3d bf 2f 4d bd fb 15 bd 3d
       0.017380971 0.031428866 -0.050094362 0.09232708
000060 6e ff 2f bc ab 8e 0a bc de b7 11 bd a4 c1 c4 bb
       -0.0107420515 -0.008456866 -0.03557574 -0.006004529
000070 0d f2 c7 3c c6 ed e9 bc d2 b7 76 3a fc 92 b3 3d
       0.024407411 -0.028555762 0.00094115466 0.087682694
000080 53 2e a6 bc 36 de 6f 3b 39 09 1f 3d f8 27 92 bc
       -0.020285761 0.0036600954 0.038827155 -0.017841324
000090 a8 e0 94 ba a2 1c c2 3d e5 af b1 3c 8c ad c9 bb
       -0.0011358457 0.094781175 0.021690318 -0.0061547216
0000a0 57 b3 33 3d b3 bd 14 3d 79 99 d5 bc dc b0 e4 bb
       0.043872204 0.036313724 -0.026074158 -0.006979091
0000b0 0d da 03 3d ef 76 84 3d b1 08 c5 3d 26 ca b0 bc
       0.03219037 0.06467997 0.096207984 -0.021580767
0000c0 e8 59 6e bd dd 6e 66 3c ae 90 10 bc 11 74 67 bd
       -0.05819121 0.014064518 -0.008823557 -0.056507174
0000d0 8c 70 4c bd 6c c0 1c bc 23 0a e9 bb 3d 37 58 3d
       -0.04991202 -0.009567361 -0.007111804 0.052787054
0000e0 32 c8 97 bc af 99 c2 3d 6b be 89 bb 59 2a 6b bc
       -0.018528078 0.09501969 -0.004203608 -0.014353358
0000f0 f8 38 1c 3d 89 49 8f 3c b7 d8 e6 bb 86 fd 21 3d
       0.038140267 0.017491119 -0.0070448774 0.03954842
000100 b4 68 00 bc e5 cc e5 3d 84 a2 94 bc 77 1b 1e bd
       -0.007837463 0.11220721 -0.0181439 -0.03860041
000110 d8 73 b0 3d 15 ab 98 bd f0 61 3a bc 68 c6 89 3c
       0.086158454 -0.07454506 -0.011375889 0.01681824
000120 19 9f 8f bd 78 6f 36 3d 12 d2 38 bd 19 4b bd bb
       -0.07012767 0.0445399 -0.045122214 -0.0057767746
000130 2e 35 15 3c 91 cc e2 bc b1 9e c5 bc 75 c3 da 3c
       0.009106917 -0.027685435 -0.024123522 0.02670453
000140 14 a6 6e ba 7a 7d 0a bd d0 2d 85 3d 24 be 9b 3c
       -0.0009103727 -0.03381107 0.06502879 0.019011565
000150 81 47 d6 bb 47 d6 a6 3a 69 81 16 bc 8a d1 25 bc
       -0.0065392856 0.0012728655 -0.009186127 -0.010120759
000160 d4 34 02 bd 82 ad 1f 3d 3e 11 10 bd c1 e6 68 bd
       -0.031788662 0.03898383 -0.035172693 -0.05686069
000170 3f 55 05 bd cf 2b 88 bb 08 d0 4d bc e3 08 f7 3c
       -0.032552 -0.004155613 -0.012561806 0.030155605
000180 67 7b 5c 3d e9 b3 b5 3c ee d9 17 bc 0b a2 87 3d
       0.053828623 0.022180514 -0.009268267 0.06622704
000190 fe c4 25 bc fb 9c ab 3d 08 df 8f 3c b0 f1 4b bc
       -0.010117767 0.08379551 0.017562404 -0.0124477595
0001a0 f3 f6 f1 bb bc 03 a1 bc 15 bb 88 3d 3b aa f7 3c
       -0.007384175 -0.019655101 0.06676308 0.03023254
0001b0 a6 5c 6e bd 57 ef 05 3e 51 33 89 bd ce 29 fb 3d
       -0.058193825 0.13079582 -0.06699241 0.12263833
0001c0 33 f7 93 bd e2 2b b0 3d 95 1c 69 3d 4d 21 2b bc
       -0.07224884 0.0860212 0.056912024 -0.010444951
0001d0 b1 0d d7 bc ab 41 9e bc d1 38 d2 3d 6b eb 28 bc
       -0.026251646 -0.019318422 0.10264743 -0.010310034
0001e0 0d a4 35 bc 0b dc cd 3d 3d 42 75 bc 09 78 e7 3d
       -0.011086476 0.100517355 -0.014969406 0.11302192
0001f0 5a a0 67 bc a5 5e d3 bb 7e fe 48 3d b6 7d c1 bb
       -0.014137352 -0.0064504915 0.049070828 -0.0059048785
000200 c9 82 c6 3d f0 8c 3b 3d 41 ee cd 3d c2 35 3f bc
       0.09692914 0.045788705 0.10055209 -0.011670532
000210 37 63 94 bc 34 b6 70 bc bf 48 8a bb 18 e3 8b bd
       -0.018113716 -0.014691878 -0.004220098 -0.06830424
000220 27 65 a4 3c 4d 5e 5e bc fd 03 5d bd 60 b0 e2 bc
       0.020067764 -0.013572288 -0.05395888 -0.027671993
000230 06 52 ac 3d 26 30 98 bc 22 b3 8b bd 7b dc a8 bb
       0.08414082 -0.018577646 -0.06821276 -0.0051532364
000240 08 8a 55 bd 8b 6e fc bb 03 1c 59 3d 70 42 e3 bc
       -0.05213359 -0.0077036074 0.05300523 -0.02774164
000250 d1 ce 18 3d cb c5 4c bc 09 c4 8f bd cc 47 c1 3d
       0.03730661 -0.012498329 -0.070198126 0.09437522
000260 29 49 2b bd 28 cf 03 bd 51 69 64 3d 8a a6 7d 3d
       -0.041817818 -0.03217998 0.0557645 0.061926402
000270 16 59 9b bb 72 80 15 bd 3a 63 ec bb 48 1c 82 bd
       -0.0047408445 -0.036499448 -0.007213977 -0.063530505
000280 ce c3 29 3d a7 d6 fa bc 30 eb ce bc 7d a2 29 bc
       0.0414465 -0.030619932 -0.02525863 -0.010353682
000290 c0 8d 6f bc 57 8e e3 bd fe 42 2a bc 91 aa a7 bc
       -0.014621198 -0.111111335 -0.010391949 -0.020467075
0002a0 9d 60 ea bb 59 4b eb 3c 91 be 5f 3d b5 7f 31 3d
       -0.0071526305 0.028722452 0.054625098 0.04333468
0002b0 45 ae 15 bd fb 03 7f 3d 6a 09 84 bc ad 8b 95 bb
       -0.03654315 0.062259655 -0.01611777 -0.00456377
0002c0 79 03 1c bd b2 9e 87 3d f7 44 c6 bb 44 e0 83 bc
       -0.03808925 0.066220656 -0.0060507017 -0.01609815
0002d0 77 e3 da bc 54 f8 f1 bb 92 24 42 3d 52 fa 7a 3c
       -0.026719792 -0.0073843393 0.047398157 0.01531847
0002e0 e5 cf 94 bd 9f 43 7c 3d 5b 1a 88 bd 22 15 00 bd
       -0.07266215 0.061587926 -0.06645652 -0.031270154
0002f0 52 b6 fe 3d b1 15 30 bd 70 19 2a bd b3 f6 3c bd
       0.124371186 -0.042989437 -0.041528165 -0.04613371
000300 64 d8 ca bc c7 0b 00 bc 61 59 c2 bd ce 05 b4 bb
       -0.024761386 -0.007815308 -0.09489704 -0.005493856
000310 28 9c 84 3d a5 4e c9 bb e8 dd 3c bd 5f a3 98 bc
       0.06475097 -0.0061434084 -0.046110064 -0.018632589
000320 6a 3a 5e bd 15 50 28 bd d7 c7 26 bd 1b b8 01 bc
       -0.054254927 -0.041091997 -0.040717926 -0.007917429
000330 dc 56 44 3a 6e c2 3c 3c 52 bd 9f 3d 88 62 02 bd
       0.00074897497 0.011520965 0.07799782 -0.031832248
000340 94 f7 0b bc ba 9f 80 3d 57 84 0d bc 55 41 fe bd
       -0.008542914 0.062804654 -0.008637509 -0.12414805
000350 48 2c ad bc cc a5 c7 bc 2e 91 62 bd f4 15 49 bc
       -0.021139279 -0.02437105 -0.055314235 -0.0122733
000360 9d ce 1a 3d e7 e2 43 bd 2b 6a 14 bc da d1 33 3d
       0.037794698 -0.047823813 -0.009058516 0.043901302
000370 3b 53 1c bd ff a4 77 bc fe f2 47 bc f9 60 de bb
       -0.038165312 -0.015115022 -0.01220393 -0.0067864624
000380 56 d1 16 bc 35 03 94 bc 59 94 8d bc c0 5c 49 bc
       -0.009205183 -0.018067935 -0.017282652 -0.01229018
000390 75 2f 52 3c b2 06 ac bc 2f 3c 8e 3d 8d 09 16 3d
       0.012828697 -0.020999286 0.06945073 0.036630202
0003a0 a2 26 16 bc e0 6c fc 3c 98 0d 4d bd 6a c0 b2 bb
       -0.009164484 0.030813634 -0.050061792 -0.0054550664
0003b0 c3 ec 67 bd 10 3c 66 bd 8d 9f 99 bb 0f ed c2 3a
       -0.056622278 -0.056209624 -0.0046882094 0.0014871674
0003c0 c1 8f d0 bd 88 bd 61 bc 16 4c fb bb 30 0d 7d 3d
       -0.10183669 -0.013778098 -0.0076689823 0.061780155
0003d0 d5 b8 37 bc 90 12 95 3d 02 bc fa bc f5 37 94 3d
       -0.011213501 0.07278931 -0.030607227 0.072372355
0003e0 94 6a d1 bb eb 1b b4 3c 70 6b 89 bd 7b 84 60 bd
       -0.006390879 0.021985969 -0.06709945 -0.054813843
0003f0 f0 c2 9c 3d 52 fe 61 3d 5a 20 b5 bc 31 4e 4d 3d
       0.07654369 0.05517418 -0.022110153 0.050123397

sequential/conv2d/BiasAdd/ReadVariableOp f4 [64]
000000 56 a4 36 3c 9e 54 b4 3c a9 7e 1d bd cf 2a 87 3b
       0.011147579 0.022013005 -0.03845087 0.004124976
000010 76 13 3b bc a1 43 11 bd 71 f4 8b ba aa dc 3d bb
       -0.011418214 -0.035464887 -0.0010677708 -0.0028970637
000020 fd 77 50 bc 06 43 03 3c ee ba 11 3c 9d e8 58 bd
       -0.01272392 0.008011585 0.008894665 -0.052956212
000030 11 a6 75 3d 32 96 c8 bc 0e 6c 07 bd d5 ec 94 bc
       0.059972826 -0.024485681 -0.033062033 -0.018179337
000040 90 63 4a bd 1c a3 ea 3b c8 9c d6 bc 03 5b bc 3c
       -0.049411356 0.0071605574 -0.026197806 0.022992617
000050 45 c1 67 3d 8a 56 83 bc 6c 00 da ba 78 88 b8 3c
       0.0565808 -0.016032476 -0.0016632206 0.02252601
000060 6e b8 ff 3c 71 a1 13 3c 95 cd 16 bd 78 65 7d bd
       0.031215873 0.009010659 -0.036817152 -0.061864346
000070 07 c6 ff 3b 13 57 15 bc f4 2b 8f bc be 70 4a 3b
       0.007805589 -0.009114998 -0.017477013 0.0030889953
000080 4a ac a4 bc f1 57 44 3c d8 4b bd 39 f3 f8 3b bb
       -0.020101685 0.0119838575 0.00036105397 -0.002868232
000090 71 88 47 3c 80 29 72 bc 9a c6 8d 3c 38 b2 1f bd
       0.012178526 -0.014780402 0.017306615 -0.038988322
0000a0 df a2 89 3c c2 44 82 3c ee 2d 86 3c 59 9e e6 3c
       0.016801296 0.015901927 0.016379323 0.028151678
0000b0 3b 1a a6 3c 0a c4 00 3d 68 de 9a ba 69 8f 8a 3d
       0.02027618 0.031436957 -0.001181555 0.067656346
0000c0 d3 0a 1e bd 45 b7 7d bd 21 e5 d0 3c f7 20 fa 3a
       -0.03858454 -0.061942358 0.025499882 0.0019083311
0000d0 10 d3 05 3d 3a b6 69 3b ed d0 07 3c 5d f5 ea 3c
       0.032671988 0.0035661594 0.008289558 0.028681451
0000e0 ce 00 54 bd 1d 1d a4 bb af 2a 08 bd 40 ad fb 3c
       -0.05175858 -0.0050083534 -0.03324383 0.03072226
0000f0 08 96 87 bc 0b 41 92 bd 91 2e 8f bc f9 cc fb ba
       -0.016551033 -0.07141312 -0.01747826 -0.0019210867

sequential/conv2d_1/BiasAdd/ReadVariableOp f4 [64]
000000 6a 8d a8 bc d5 06 cd bb 32 9a 13 bd 7c 6c 85 3c
       -0.020575244 -0.006256918 -0.036035724 0.016287081
000010 ed 09 55 bd 8a c5 b4 3d d7 66 d0 bc 5f 99 19 3e
       -0.05201142 0.0882674 -0.025439663 0.14999913
000020 4d 45 d0 3d ff 7d 90 3d f5 87 0a 3c 17 c4 c8 bc
       0.10169468 0.07055282 0.008455266 -0.024507565
000030 ed 2f 06 bd 4a 14 1f b9 97 65 2c 3b 75 29 b0 3c
       -0.03276055 -0.0001517098 0.002630567 0.021504143
000040 06 b4 32 bc 4b 10 9e 3d 97 78 6d bd 3f ef e3 3c
       -0.010907179 0.077179514 -0.05797633 0.027824042
000050 f7 b6 65 bc 0d 68 5b 3c 51 d8 87 bd 3b e3 27 3c
       -0.014020673 0.013391507 -0.06633056 0.010247047
000060 bb 7a cf 3b 22 f3 9e 3d 51 1b 74 bd 7f 9e c0 3d
       0.0063317693 0.07761218 -0.059596363 0.09405231
000070 1a a0 26 bd f3 69 35 3c de 70 05 bb b9 96 b9 3c
       -0.04068003 0.011072624 -0.0020361464 0.022654878
000080 24 5a 1f bd b4 e0 81 bc 6b a6 98 3b f2 82 8a bd
       -0.038904324 -0.015854217 0.0046585104 -0.06763257
000090 25 21 a1 bd dc 27 b0 3d d8 b4 3c 3d bf ac ef 3a
       -0.0786765 0.086013526 0.046070904 0.0018285735
0000a0 50 d5 06 3d 76 ed 7a bc 4d d0 65 bc 4c a2 a3 bc
       0.032918274 -0.015315404 -0.014026714 -0.01997485
0000b0 5c 8e 03 bc eb 7a 6a bd 65 e0 8c 3d af cd 3d bc
       -0.008029547 -0.05724613 0.06878737 -0.011584683
0000c0 90 a4 01 3e 61 a8 93 bc 82 37 3e bd ef 63 9c bc
       0.12660432 -0.018024625 -0.046439655 -0.01909062
0000d0 86 a3 07 bc 99 fc e7 3c 75 3f 82 3d f7 8b 61 3b
       -0.008278733 0.02831869 0.0635976 0.00344157
0000e0 37 a5 15 3b de 82 88 3b c8 29 3c 3d da 84 ed bc
       0.0022834071 0.004165991 0.045938283 -0.028994013
0000f0 a0 7d 27 3d 5d 03 5c bc 9e ed 05 bd 3b 85 66 ba
       0.04089129 -0.013428536 -0.032697313 -0.00087936566

sequential/conv2d/Conv2D i1 [64, 3, 3, 3]
000000 b7 1a 16 22 56 99 4e 5b 8c c8 56 10 e7 28 e9 31
       -73 26 22 34 86 -103 78 91 -116 -56 86 16 -25 40 -23 49
000010 fa 81 b4 53 3e e5 32 ac af 4c ed 0c d8 27 04 53
       -6 -127 -76 83 62 -27 50 -84 -81 76 -19 12 -40 39 4 83
000020 e7 f4 db 81 20 47 c7 38 55 9f 24 0d d2 1d ca af
       -25 -12 -37 -127 32 71 -57 56 85 -97 36 13 -46 29 -54 -81
000030 26 4c e9 1f 56 92 16 fb 59 1c 81 aa 25 ce 3f 37
       38 76 -23 31 86 -110 22 -5 89 28 -127 -86 37 -50 63 55
000040 f4 03 09 dc 4b ec f2 62 d7 06 c3 fa ae ca 4e 29
       -12 3 9 -36 75 -20 -14 98 -41 6 -61 -6 -82 -54 78 41
000050 31 09 67 ac ce 62 0c 81 18 cf b1 30 3f 3b 25 c4
       49 9 103 -84 -50 98 12 -127 24 -49 -79 48 63 59 37 -60
000060 96 00 e8 20 6e 4f e2 35 c9 c0 c8 16 53 b0 d7 48
       -106 0 -24 32 110 79 -30 53 -55 -64 -56 22 83 -80 -41 72
000070 fb 1d 1f 07 11 40 a7 cf 3d 84 d5 19 96 ed 0e e0
       -5 29 31 7 17 64 -89 -49 61 -124 -43 25 -106 -19 14 -32
000080 0f 02 08 bb 47 81 15 08 30 18 be 82 81 c8 bd cd
       15 2 8 -69 71 -127 21 8 48 24 -66 -126 -127 -56 -67 -51
000090 bb d9 f5 e1 04 40 9b 26 9f 5a 07 04 e5 5f 73 60
       -69 -39 -11 -31 4 64 -101 38 -97 90 7 4 -27 95 115 96
0000a0 51 40 30 57 a8 a3 33 e8 96 50 88 9f f0 b3 42 64
       81 64 48 87 -88 -93 51 -24 -106 80 -120 -97 -16 -77 66 100
0000b0 42 17 37 d9 19 50 c6 ee 69 81 06 09 26 0d 6c 5f
       66 23 55 -39 25 80 -58 -18 105 -127 6 9 38 13 108 95
0000c0 3d 2a 6a f3 81 99 6b b4 c8 0c b5 7a 03 93 f1 f0
       61 42 106 -13 -127 -103 107 -76 -56 12 -75 122 3 -109 -15 -16
0000d0 d0 da eb 51 61 bb a8 05 81 41 18 88 fa 64 8a bb
       -48 -38 -21 81 97 -69 -88 5 -127 65 24 -120 -6 100 -118 -69
0000e0 2f ff 46 64 33 31 df ea 13 2d ab 2f 2d b3 57 c1
       47 -1 70 100 51 49 -33 -22 19 45 -85 47 45 -77 87 -63
0000f0 e1 2c 15 48 c7 20 ff 4c 9f f6 cc 91 2d 4d 05 fd
       -31 44 21 72 -57 32 -1 76 -97 -10 -52 -111 45 77 5 -3

sequential/conv2d_1/Conv2D i1 [64, 3, 3, 64]
000000 23 26 f3 38 9d df 1b 32 f5 27 12 e2 be 06 b2 ff
       35 38 -13 56 -99 -33 27 50 -11 39 18 -30 -66 6 -78 -1
000010 14 47 b7 c6 c7 ca 26 0e e3 b9 fc e0 fa c1 e9 e8
       20 71 -73 -58 -57 -54 38 14 -29 -71 -4 -32 -6 -63 -23 -24
000020 1d 09 38 f2 25 fa 34 1d 1c fd 4a e6 b9 03 ed ad
       29 9 56 -14 37 -6 52 29 28 -3 74 -26 -71 3 -19 -83
000030 2f e4 10 05 f6 d3 42 25 f6 f2 f8 dd 2e e3 ed 2f
       47 -28 16 5 -10 -45 66 37 -10 -14 -8 -35 46 -29 -19 47
000040 18 d4 21 18 bc bb 18 0b f0 f0 e9 0a cb 02 2a 13
       24 -44 33 24 -68 -69 24 11 -16 -16 -23 10 -53 2 42 19
000050 fc e6 d4 ee bc 0f 28 df b2 11 23 0f e7 01 f3 06
       -4 -26 -44 -18 -68 15 40 -33 -78 17 35 15 -25 1 -13 6
000060 46 11 09 fb dc df 00 26 26 0b f6 38 c8 f0 1c ef
       70 17 9 -5 -36 -33 0 38 38 11 -10 56 -56 -16 28 -17
000070 0b 2c 0d 1f df 1d 2e 03 12 14 f2 d9 05 ef f2 1a
       11 44 13 31 -33 29 46 3 18 20 -14 -39 5 -17 -14 26
000080 f6 db 16 e0 e2 29 d4 f7 e8 05 ff ef d9 f2 12 24
       -10 -37 22 -32 -30 41 -44 -9 -24 5 -1 -17 -39 -14 18 36
000090 ff f7 d7 c6 f6 cb 06 02 e2 10 11 27 04 bc 21 f5
       -1 -9 -41 -58 -10 -53 6 2 -30 16 17 39 4 -68 33 -11
0000a0 19 08 1c 06 e6 ed 05 1f 17 0d 0a 31 06 be ec da
       25 8 28 6 -26 -19 5 31 23 13 10 49 6 -66 -20 -38
0000b0 f0 0c d9 4a d8 fd 1c d1 2a 0f 27 ce fe f5 06 10
       -16 12 -39 74 -40 -3 28 -47 42 15 39 -50 -2 -11 6 16
0000c0 16 08 22 22 bf 95 25 1b 1f 10 28 e9 bb eb 6d 09
       22 8 34 34 -65 -107 37 27 31 16 40 -23 -69 -21 109 9
0000d0 29 e6 b4 e5 d1 df 2b d0 d7 29 ff 16 ab d3 0f e8
       41 -26 -76 -27 -47 -33 43 -48 -41 41 -1 22 -85 -45 15 -24
0000e0 fd 15 0b f8 f6 e4 1e 11 3c 38 4b 2f bf c0 15 b8
       -3 21 11 -8 -10 -28 30 17 60 56 75 47 -65 -64 21 -72
0000f0 2b de ef 16 f4 11 2e 1a 48 19 26 b4 1c ef b7 39
       43 -34 -17 22 -12 17 46 26 72 25 38 -76 28 -17 -73 57

sequential/dense/MatMul i1 [512, 1600] scale=0.0034223225 zero_point=0
000000 0a 0b 0b 08 fe fb e9 24 00 20 eb 2a 16 0b 0a 0b
       0.034223225 0.03764555 0.03764555 0.02737858 -0.006844645 -0.017111612 -0.07871342 0.123203605 0.0 0.10951432 -0.07186877 0.14373754 0.0752911 0.03764555 0.034223225 0.03764555
000010 f4 2f f6 f7 ec f6 04 ef 00 2e 07 fc 03 07 fb f7
       -0.04106787 0.16084915 -0.034223225 -0.030800901 -0.06844645 -0.034223225 0.01368929 -0.058179483 0.0 0.15742683 0.023956258 -0.01368929 0.010266967 0.023956258 -0.017111612 -0.030800901
000020 d2 0a 12 0b f5 12 0c 13 0b da f3 05 ed 10 ed f2
       -0.15742683 0.034223225 0.061601803 0.03764555 -0.03764555 0.061601803 0.04106787 0.06502413 0.03764555 -0.13004826 -0.044490192 0.017111612 -0.06502413 0.05475716 -0.06502413 -0.047912516
000030 18 09 2b 08 03 f4 1e fa 1c 0f fd 03 f6 01 1f ff
       0.08213574 0.030800901 0.14715986 0.02737858 0.010266967 -0.04106787 0.10266967 -0.020533934 0.09582503 0.051334836 -0.010266967 0.010266967 -0.034223225 0.0034223225 0.106092 -0.0034223225
000040 05 fd 03 f4 f8 f9 ef 08 f1 ff ee 0c ed 15 fb 00
       0.017111612 -0.010266967 0.010266967 -0.04106787 -0.02737858 -0.023956258 -0.058179483 0.02737858 -0.051334836 -0.0034223225 -0.061601803 0.04106787 -0.06502413 0.07186877 -0.017111612 0.0
000050 08 09 0a 0a fe 01 fd 09 fb 10 04 10 ff 0a f8 fa
       0.02737858 0.030800901 0.034223225 0.034223225 -0.006844645 0.0034223225 -0.010266967 0.030800901 -0.017111612 0.05475716 0.01368929 0.05475716 -0.0034223225 0.034223225 -0.02737858 -0.020533934
000060 0b f2 fa f0 0d f1 15 ee f4 06 f4 0e f9 f9 f7 00
       0.03764555 -0.047912516 -0.020533934 -0.05475716 0.044490192 -0.051334836 0.07186877 -0.061601803 -0.04106787 0.020533934 -0.04106787 0.047912516 -0.023956258 -0.023956258 -0.030800901 0.0
000070 3b fb 00 0b 08 07 f7 02 07 05 14 0d 04 f7 0a ef
       0.20191702 -0.017111612 0.0 0.03764555 0.02737858 0.023956258 -0.030800901 0.006844645 0.023956258 0.017111612 0.06844645 0.044490192 0.01368929 -0.030800901 0.034223225 -0.058179483
000080 fe f8 10 fd f2 fa ff 24 fb eb d7 0d 06 04 10 08
       -0.006844645 -0.02737858 0.05475716 -0.010266967 -0.047912516 -0.020533934 -0.0034223225 0.123203605 -0.017111612 -0.07186877 -0.14031522 0.044490192 0.020533934 0.01368929 0.05475716 0.02737858
000090 f4 00 ff fb ed fa f3 12 f7 06 f1 0e f6 08 f5 01
       -0.04106787 0.0 -0.0034223225 -0.017111612 -0.06502413 -0.020533934 -0.044490192 0.061601803 -0.030800901 0.020533934 -0.051334836 0.047912516 -0.034223225 0.02737858 -0.03764555 0.0034223225
0000a0 0d ff eb fb 04 f8 09 dd f6 18 00 02 00 06 0e 15
       0.044490192 -0.0034223225 -0.07186877 -0.017111612 0.01368929 -0.02737858 0.030800901 -0.119781286 -0.034223225 0.08213574 0.0 0.006844645 0.0 0.020533934 0.047912516 0.07186877
0000b0 26 03 01 01 0b f1 00 15 f5 dd f8 ed e9 fe 06 00
       0.13004826 0.010266967 0.0034223225 0.0034223225 0.03764555 -0.051334836 0.0 0.07186877 -0.03764555 -0.119781286 -0.02737858 -0.06502413 -0.07871342 -0.006844645 0.020533934 0.0
0000c0 08 ec 13 e5 05 fc 06 27 07 f6 fc 08 1c eb f4 20
       0.02737858 -0.06844645 0.06502413 -0.092402704 0.017111612 -0.01368929 0.020533934 0.13347058 0.023956258 -0.034223225 -0.01368929 0.02737858 0.09582503 -0.07186877 -0.04106787 0.10951432
0000d0 1c 03 05 ef fb f8 02 14 e8 0b fe 03 f4 10 f1 15
       0.09582503 0.010266967 0.017111612 -0.058179483 -0.017111612 -0.02737858 0.006844645 0.06844645 -0.08213574 0.03764555 -0.006844645 0.010266967 -0.04106787 0.05475716 -0.051334836 0.07186877
0000e0 fa f9 fe 15 07 01 07 ed f9 06 0f 09 f1 04 ff 1d
       -0.020533934 -0.023956258 -0.006844645 0.07186877 0.023956258 0.0034223225 0.023956258 -0.06502413 -0.023956258 0.020533934 0.051334836 0.030800901 -0.051334836 0.01368929 -0.0034223225 0.09924735
0000f0 25 0c 02 e5 1b 0c fe 19 15 f5 f2 f8 f7 12 e8 eb
       0.12662593 0.04106787 0.006844645 -0.092402704 0.092402704 0.04106787 -0.006844645 0.085558064 0.07186877 -0.03764555 -0.047912516 -0.02737858 -0.030800901 0.061601803 -0.08213574 -0.07186877

sequential/dense_1/MatMul i1 [9, 512] scale=0.004186698 zero_point=0
000000 15 15 08 ea 08 f0 0d 0c ed 2a ff 06 be 0d 00 08
       0.08792065 0.08792065 0.033493582 -0.09210735 0.033493582 -0.066987164 0.054427072 0.050240375 -0.079547256 0.1758413 -0.004186698 0.025120188 -0.27632207 0.054427072 0.0 0.033493582
000010 0b f0 0e ec 0e 00 d6 dc f8 07 0f e9 09 03 e9 c8
       0.046053674 -0.066987164 0.05861377 -0.08373395 0.05861377 0.0 -0.1758413 -0.15072112 -0.033493582 0.029306885 0.06280047 -0.096294045 0.03768028 0.012560094 -0.096294045 -0.23445508
000020 f2 2a 0f db 00 ea f6 fe 0a 04 17 ef f5 e8 02 0a
       -0.05861377 0.1758413 0.06280047 -0.15490782 0.0 -0.09210735 -0.041866977 -0.008373396 0.041866977 0.016746791 0.096294045 -0.07117386 -0.046053674 -0.10048075 0.008373396 0.041866977
000030 10 ca 07 0b ee 11 10 fd 00 04 e1 0a 09 c6 0a 06
       0.066987164 -0.22608168 0.029306885 0.046053674 -0.07536056 0.07117386 0.066987164 -0.012560094 0.0 0.016746791 -0.12978762 0.041866977 0.03768028 -0.24282847 0.041866977 0.025120188
000040 06 e0 13 05 f6 06 a7 08 1c ec fe ea 1f 19 0c 16
       0.025120188 -0.13397433 0.079547256 0.020933488 -0.041866977 0.025120188 -0.3726161 0.033493582 0.11722754 -0.08373395 -0.008373396 -0.09210735 0.12978762 0.10466745 0.050240375 0.09210735
000050 d8 17 06 1f 11 07 ed 13 f4 d1 14 ea 0b fe ec 21
       -0.1674679 0.096294045 0.025120188 0.12978762 0.07117386 0.029306885 -0.079547256 0.079547256 -0.050240375 -0.1967748 0.08373395 -0.09210735 0.046053674 -0.008373396 -0.08373395 0.13816103
000060 fc eb fb d5 02 d3 ca 0c e9 fe d9 07 07 e4 fd b8
       -0.016746791 -0.08792065 -0.020933488 -0.180028 0.008373396 -0.1884014 -0.22608168 0.050240375 -0.096294045 -0.008373396 -0.16328122 0.029306885 0.029306885 -0.11722754 -0.012560094 -0.30144224
000070 14 01 d9 f5 06 0f d9 e9 f5 fa f1 ed f8 05 01 03
       0.08373395 0.004186698 -0.16328122 -0.046053674 0.025120188 0.06280047 -0.16328122 -0.096294045 -0.046053674 -0.025120188 -0.06280047 -0.079547256 -0.033493582 0.020933488 0.004186698 0.012560094
000080 d8 11 0e c9 0b 0b 05 0e 06 e5 0f e5 c7 f7 17 14
       -0.1674679 0.07117386 0.05861377 -0.23026837 0.046053674 0.046053674 0.020933488 0.05861377 0.025120188 -0.11304084 0.06280047 -0.11304084 -0.23864177 -0.03768028 0.096294045 0.08373395
000090 e0 17 0d e1 b9 ff 20 d2 0e ec 0a d8 f9 28 05 15
       -0.13397433 0.096294045 0.054427072 -0.12978762 -0.29725555 -0.004186698 0.13397433 -0.19258809 0.05861377 -0.08373395 0.041866977 -0.1674679 -0.029306885 0.1674679 0.020933488 0.08792065
0000a0 f0 06 ef f3 0d 1b e7 cd f9 c4 0b d4 19 de f8 fb
       -0.066987164 0.025120188 -0.07117386 -0.054427072 0.054427072 0.11304084 -0.10466745 -0.21352158 -0.029306885 -0.25120187 0.046053674 -0.1842147 0.10466745 -0.14234772 -0.033493582 -0.020933488
0000b0 e7 08 f4 f0 0b ed e2 14 15 ff 0b 15 a8 ff fa 23
       -0.10466745 0.033493582 -0.050240375 -0.066987164 0.046053674 -0.079547256 -0.12560093 0.08373395 0.08792065 -0.004186698 0.046053674 0.08792065 -0.3684294 -0.004186698 -0.025120188 0.14653443
0000c0 1b fd 0f ed c9 ea d8 fb eb 15 17 ea 0f 19 f9 0f
       0.11304084 -0.012560094 0.06280047 -0.079547256 -0.23026837 -0.09210735 -0.1674679 -0.020933488 -0.08792065 0.08792065 0.096294045 -0.09210735 0.06280047 0.10466745 -0.029306885 0.06280047
0000d0 f2 fa 06 12 05 f8 15 f7 1d 09 13 e9 04 01 ef 0d
       -0.05861377 -0.025120188 0.025120188 0.07536056 0.020933488 -0.033493582 0.08792065 -0.03768028 0.12141424 0.03768028 0.079547256 -0.096294045 0.016746791 0.004186698 -0.07117386 0.054427072
0000e0 e4 fd fe 0e 10 0f 1a 18 f1 24 17 08 16 02 11 bc
       -0.11722754 -0.012560094 -0.008373396 0.05861377 0.066987164 0.06280047 0.108854145 0.10048075 -0.06280047 0.15072112 0.096294045 0.033493582 0.09210735 0.008373396 0.07117386 -0.28469545
0000f0 1d ec 0f f0 06 f0 c9 f9 f3 04 09 23 f1 1c 0c f9
       0.12141424 -0.08373395 0.06280047 -0.066987164 0.025120188 -0.066987164 -0.23026837 -0.029306885 -0.054427072 0.016746791 0.03768028 0.14653443 -0.06280047 0.11722754 0.050240375 -0.029306885
